{"keras_version": "2.1.6", "class_name": "Sequential", "config": [{"class_name": "Conv3D", "config": {"strides": [2, 2, 2], "kernel_initializer": {"class_name": "VarianceScaling", "config": {"mode": "fan_avg", "distribution": "uniform", "seed": null, "scale": 1.0}}, "activity_regularizer": null, "kernel_size": [5, 5, 5], "padding": "valid", "name": "conv3d_1", "dtype": "float32", "bias_initializer": {"class_name": "Zeros", "config": {}}, "kernel_regularizer": null, "dilation_rate": [1, 1, 1], "kernel_constraint": null, "bias_regularizer": null, "trainable": true, "activation": "relu", "data_format": "channels_last", "filters": 32, "batch_input_shape": [null, 40, 40, 40, 1], "use_bias": true, "bias_constraint": null}}, {"class_name": "MaxPooling3D", "config": {"strides": [2, 2, 2], "pool_size": [2, 2, 2], "trainable": true, "name": "max_pooling3d_1", "padding": "valid", "data_format": "channels_last"}}, {"class_name": "Dropout", "config": {"rate": 0.1, "name": "dropout_1", "seed": null, "trainable": true, "noise_shape": null}}, {"class_name": "Conv3D", "config": {"strides": [1, 1, 1], "kernel_initializer": {"class_name": "VarianceScaling", "config": {"mode": "fan_avg", "distribution": "uniform", "seed": null, "scale": 1.0}}, "activity_regularizer": null, "kernel_size": [3, 3, 3], "padding": "valid", "name": "conv3d_2", "bias_initializer": {"class_name": "Zeros", "config": {}}, "kernel_regularizer": null, "dilation_rate": [1, 1, 1], "kernel_constraint": null, "bias_regularizer": null, "trainable": true, "activation": "relu", "data_format": "channels_last", "filters": 64, "use_bias": true, "bias_constraint": null}}, {"class_name": "MaxPooling3D", "config": {"strides": [2, 2, 2], "pool_size": [2, 2, 2], "trainable": true, "name": "max_pooling3d_2", "padding": "valid", "data_format": "channels_last"}}, {"class_name": "Dropout", "config": {"rate": 0.1, "name": "dropout_2", "seed": null, "trainable": true, "noise_shape": null}}, {"class_name": "Flatten", "config": {"data_format": "channels_last", "trainable": true, "name": "flatten_1"}}, {"class_name": "Dense", "config": {"units": 128, "kernel_initializer": {"class_name": "VarianceScaling", "config": {"mode": "fan_avg", "distribution": "uniform", "seed": null, "scale": 1.0}}, "activity_regularizer": null, "bias_initializer": {"class_name": "Zeros", "config": {}}, "name": "dense_1", "kernel_regularizer": null, "kernel_constraint": null, "bias_regularizer": null, "trainable": true, "activation": "linear", "use_bias": true, "bias_constraint": null}}, {"class_name": "Dropout", "config": {"rate": 0.3, "name": "dropout_3", "seed": null, "trainable": true, "noise_shape": null}}, {"class_name": "Dense", "config": {"units": 2, "kernel_initializer": {"class_name": "VarianceScaling", "config": {"mode": "fan_avg", "distribution": "uniform", "seed": null, "scale": 1.0}}, "activity_regularizer": null, "bias_initializer": {"class_name": "Zeros", "config": {}}, "name": "dense_2", "kernel_regularizer": null, "kernel_constraint": null, "bias_regularizer": null, "trainable": true, "activation": "linear", "use_bias": true, "bias_constraint": null}}, {"class_name": "Activation", "config": {"name": "activation_1", "trainable": true, "activation": "softmax"}}], "backend": "tensorflow"}